…
    "            nn.Conv2d(32, 2, kernel_size=3, stride=1, padding=1),\n",
    "            nn.Upsample(scale_factor=2)\n",
    "        )\n",
    "\n",
    "    def forward(self, x, in_=None):\n",
    "        x = self.encoder(x)\n",
    "        if self.mid_input_size > 0:\n",
    "            x = torch.cat([x, in_], dim=1)\n",
    "        x = self.decoder(x)\n",
    "        return x"
   ]
  },
  {
   "cell_type": "code",
   "execution_count": 4,
   "metadata": {},
   "outputs": [
    {
     "data": {
      "text/plain": [
       "ColorNetResnet50(\n",
       "  (encoder): Sequential(\n",
       "    (0): Conv2d(3, 64, kernel_size=(7, 7), stride=(2, 2), padding=(3, 3), bias=False)\n",
       "    (1): BatchNorm2d(64, eps=1e-05, momentum=0.1, affine=True, track_running_stats=True)\n",
       "    (2): ReLU(inplace=True)\n",
       "    (3): MaxPool2d(kernel_size=3, stride=2, padding=1, dilation=1, ceil_mode=False)\n",
       "    (4): Sequential(\n",
       "      (0): Bottleneck(\n",
       "        (conv1): Conv2d(64, 64, kernel_size=(1, 1), stride=(1, 1), bias=False)\n",
       "        (bn1): BatchNorm2d(64, eps=1e-05, momentum=0.1, affine=True, track_running_stats=True)\n",
       "        (conv2): Conv2d(64, 64, kernel_size=(3, 3), stride=(1, 1), padding=(1, 1), bias=False)\n",
       "        (bn2): BatchNorm2d(64, eps=1e-05, momentum=0.1, affine=True, track_running_stats=True)\n",
       "        (conv3): Conv2d(64, 256, kernel_size=(1, 1), stride=(1, 1), bias=False)\n",
       "        (bn3): BatchNorm2d(256, eps=1e-05, momentum=0.1, affine=True, track_running_stats=True)\n",
       "        (relu): ReLU(inplace=True)\n",
       "        (downsample): Sequential(\n",
       "          (0): Conv2d(64, 256, kernel_size=(1, 1), stride=(1, 1), bias=False)\n",
       "          (1): BatchNorm2d(256, eps=1e-05, momentum=0.1, affine=True, track_running_stats=True)\n",
       "        )\n",
       "      )\n",
       "      (1): Bottleneck(\n",
       "        (conv1): Conv2d(256, 64, kernel_size=(1, 1), stride=(1, 1), bias=False)\n",
       "        (bn1): BatchNorm2d(64, eps=1e-05, momentum=0.1, affine=True, track_running_stats=True)\n",
       "        (conv2): Conv2d(64, 64, kernel_size=(3, 3), stride=(1, 1), padding=(1, 1), bias=False)\n",
       "        (bn2): BatchNorm2d(64, eps=1e-05, momentum=0.1, affine=True, track_running_stats=True)\n",
       "        (conv3): Conv2d(64, 256, kernel_size=(1, 1), stride=(1, 1), bias=False)\n",
       "        (bn3): BatchNorm2d(256, eps=1e-05, momentum=0.1, affine=True, track_running_stats=True)\n",
       "        (relu): ReLU(inplace=True)\n",
       "      )\n",
       "      (2): Bottleneck(\n",
       "        (conv1): Conv2d(256, 64, kernel_size=(1, 1), stride=(1, 1), bias=False)\n",
       "        (bn1): BatchNorm2d(64, eps=1e-05, momentum=0.1, affine=True, track_running_stats=True)\n",
       "        (conv2): Conv2d(64, 64, kernel_size=(3, 3), stride=(1, 1), padding=(1, 1), bias=False)\n",
       "        (bn2): BatchNorm2d(64, eps=1e-05, momentum=0.1, affine=True, track_running_stats=True)\n",
       "        (conv3): Conv2d(64, 256, kernel_size=(1, 1), stride=(1, 1), bias=False)\n",
       "        (bn3): BatchNorm2d(256, eps=1e-05, momentum=0.1, affine=True, track_running_stats=True)\n",
       "        (relu): ReLU(inplace=True)\n",
       "      )\n",
       "    )\n",
       "    (5): Sequential(\n",
       "      (0): Bottleneck(\n",
       "        (conv1): Conv2d(256, 128, kernel_size=(1, 1), stride=(1, 1), bias=False)\n",
       "        (bn1): BatchNorm2d(128, eps=1e-05, momentum=0.1, affine=True, track_running_stats=True)\n",
       "        (conv2): Conv2d(128, 128, kernel_size=(3, 3), stride=(2, 2), padding=(1, 1), bias=False)\n",
       "        (bn2): BatchNorm2d(128, eps=1e-05, momentum=0.1, affine=True, track_running_stats=True)\n",
       "        (conv3): Conv2d(128, 512, kernel_size=(1, 1), stride=(1, 1), bias=False)\n",
       "        (bn3): BatchNorm2d(512, eps=1e-05, momentum=0.1, affine=True, track_running_stats=True)\n",
       "        (relu): ReLU(inplace=True)\n",
       "        (downsample): Sequential(\n",
       "          (0): Conv2d(256, 512, kernel_size=(1, 1), stride=(2, 2), bias=False)\n",
       "          (1): BatchNorm2d(512, eps=1e-05, momentum=0.1, affine=True, track_running_stats=True)\n",
       "        )\n",
       "      )\n",
       "      (1): Bottleneck(\n",
       "        (conv1): Conv2d(512, 128, kernel_size=(1, 1), stride=(1, 1), bias=False)\n",
       "        (bn1): BatchNorm2d(128, eps=1e-05, momentum=0.1, affine=True, track_running_stats=True)\n",
       "        (conv2): Conv2d(128, 128, kernel_size=(3, 3), stride=(1, 1), padding=(1, 1), bias=False)\n",
       "        (bn2): BatchNorm2d(128, eps=1e-05, momentum=0.1, affine=True, track_running_stats=True)\n",
       "        (conv3): Conv2d(128, 512, kernel_size=(1, 1), stride=(1, 1), bias=False)\n",
       "        (bn3): BatchNorm2d(512, eps=1e-05, momentum=0.1, affine=True, track_running_stats=True)\n",
       "        (relu): ReLU(inplace=True)\n",
       "      )\n",
       "      (2): Bottleneck(\n",
       "        (conv1): Conv2d(512, 128, kernel_size=(1, 1), stride=(1, 1), bias=False)\n",
       "        (bn1): BatchNorm2d(128, eps=1e-05, momentum=0.1, affine=True, track_running_stats=True)\n",
       "        (conv2): Conv2d(128, 128, kernel_size=(3, 3), stride=(1, 1), padding=(1, 1), bias=False)\n",
       "        (bn2): BatchNorm2d(128, eps=1e-05, momentum=0.1, affine=True, track_running_stats=True)\n",
       "        (conv3): Conv2d(128, 512, kernel_size=(1, 1), stride=(1, 1), bias=False)\n",
       "        (bn3): BatchNorm2d(512, eps=1e-05, momentum=0.1, affine=True, track_running_stats=True)\n",
       "        (relu): ReLU(inplace=True)\n",
       "      )\n",
       "      (3): Bottleneck(\n",
       "        (conv1): Conv2d(512, 128, kernel_size=(1, 1), stride=(1, 1), bias=False)\n",
       "        (bn1): BatchNorm2d(128, eps=1e-05, momentum=0.1, affine=True, track_running_stats=True)\n",
       "        (conv2): Conv2d(128, 128, kernel_size=(3, 3), stride=(1, 1), padding=(1, 1), bias=False)\n",
       "        (bn2): BatchNorm2d(128, eps=1e-05, momentum=0.1, affine=True, track_running_stats=True)\n",
       "        (conv3): Conv2d(128, 512, kernel_size=(1, 1), stride=(1, 1), bias=False)\n",
       "        (bn3): BatchNorm2d(512, eps=1e-05, momentum=0.1, affine=True, track_running_stats=True)\n",
       "        (relu): ReLU(inplace=True)\n",
       "      )\n",
       "    )\n",
       "  )\n",
       "  (decoder): Sequential(\n",
       "    (0): Conv2d(1024, 128, kernel_size=(3, 3), stride=(1, 1), padding=(1, 1))\n",
       "    (1): BatchNorm2d(128, eps=1e-05, momentum=0.1, affine=True, track_running_stats=True)\n",
       "    (2): ReLU()\n",
       "    (3): Upsample(scale_factor=2.0, mode=nearest)\n",
       "    (4): Conv2d(128, 64, kernel_size=(3, 3), stride=(1, 1), padding=(1, 1))\n",
       "    (5): BatchNorm2d(64, eps=1e-05, momentum=0.1, affine=True, track_running_stats=True)\n",
       "    (6): ReLU()\n",
       "    (7): Conv2d(64, 64, kernel_size=(3, 3), stride=(1, 1), padding=(1, 1))\n",
       "    (8): BatchNorm2d(64, eps=1e-05, momentum=0.1, affine=True, track_running_stats=True)\n",
       "    (9): ReLU()\n",
       "    (10): Upsample(scale_factor=2.0, mode=nearest)\n",
       "    (11): Conv2d(64, 32, kernel_size=(3, 3), stride=(1, 1), padding=(1, 1))\n",
       "    (12): BatchNorm2d(32, eps=1e-05, momentum=0.1, affine=True, track_running_stats=True)\n",
       "    (13): ReLU()\n",
       "    (14): Conv2d(32, 2, kernel_size=(3, 3), stride=(1, 1), padding=(1, 1))\n",
       "    (15): Upsample(scale_factor=2.0, mode=nearest)\n",
       "  )\n",
       ")"
      ]
     },
     "execution_count": 4,
     "metadata": {},
     "output_type": "execute_result"
    }
   ],
   "source": [
    "models = {\n",
    "    \"resnet18\": ColorNetResnet18,\n",
    "    \"resnet50\": ColorNetResnet50\n",
    "}\n",
    "extractors = {\n",
…
